test/checkpoint_for_shap_reproducibility.ckpt (torch, 48038 bytes, 63 tensors)

net.pos_embedding f4 [1, 8, 4, 4]
00000000: 9112 06bd 9fc9 8abc 8705 19bd 5eb2 05bd
00000010: 35bc 1ebc a7b5 7cbc a264 8bbc 376a 34bb
00000020: 78f4 98bc 609e 59bb 9276 cebb 7c6e ccbc
00000030: 26e5 91bc 58ab 11bc 0760 a2bc 1ef4 77bc
00000040: 3b9e 453d 2a51 073d 38de c93b 0b26 163d
00000050: 2c0e e13c 6867 3d3c c971 5d3c c793 223c
00000060: 0349 1c3d 7efc 5c3c 6666 cc3c d3dd dd3c
00000070: 3f30 023d 7362 2a3d b036 043d 80da 183c
00000080: be8b ebbd 2984 e2bd 5d52 043c 0471 c93b
00000090: 8ba2 c6bd 8f7b 9dbd 00ce f83b 5073 b6bc
000000a0: 3ee4 ecbd 4094 dbbd e90c 51ba 7295 94bc
000000b0: 264c ddbd 9ee9 f1bd eb26 95bc 7f0d 01bd
000000c0: b3d9 85bd adea 72bd f807 183d f5cd b1ba
000000d0: 3d16 52bd 46a8 a9bd 23d0 023c de5c 70bb
000000e0: 8108 62bd 4941 a3bd cf4e c0bb 745d 0fbb
000000f0: 99d5 83bd ce98 7ebd 5be2 2f3b 263f a43b
00000100: d38b cdbc f37e 11bc 28ae 313d ad45 f63b
00000110: 034a 9d3c e1ee daba ab0b 82bb 202d bb3c
00000120: ced2 83bb 6b58 98bc 9f3b df3c 30d4 503b
00000130: 3bef b0bb a354 e1bb ca66 d33c a821 c73c
00000140: 5d39 38bd 7bc7 70bd e5ff 843a d15b c73c
00000150: db0b 41bd 13b0 72bd a226 3c3c a860 873b
00000160: ca06 70bd 2fe6 82bd 80a3 5f3b daf0 cfb9
00000170: 5a55 66bd 9252 19bd 0a4c 80ba c576 58bb
00000180: 6c90 37bd db16 23bd 20b5 863d 000f a43d
00000190: 3f1a 5cbd 543c c8bc 5246 9b3d 92be 9f3d
000001a0: 4858 b7bc 0327 37bd c33a 9d3d 47be a63d
000001b0: ecc0 17bd 39cd 32bd 0966 a63d 63f4 903d
000001c0: 9dee 0f3d 3d08 123d 2138 c9bd 0d75 e6bd
000001d0: fb08 643d 60d3 563d 920b bcbd e02e f9bd
000001e0: d4ac 593d 7bb8 313d a662 fdbd 0f48 c8bd
000001f0: a9f4 513d b0e7 383d 64ba 00be 2b49 d1bd
-0.03273255 -0.016941844 -0.037358787 -0.032640807 -0.009688427 -0.015424169 -0.017015759 -0.002752913
-0.01867126 -0.003320597 -0.006300756 -0.024955027 -0.017809462 -0.008890949 -0.01982118 -0.015133886
0.048246603 0.03303639 0.0061605237 0.036657374 0.027472578 0.0115602985 0.013515898 0.009922928
0.038155567 0.013487933 0.024951171 0.027083313 0.031784292 0.041597795 0.032278717 0.009329438
-0.11501263 -0.11060364 0.008076278 0.0061475057 -0.09698971 -0.076895826 0.0075929165 -0.022271782
-0.11566971 -0.10721636 -0.0007974641 -0.018137667 -0.1080554 -0.11812137 -0.018207034 -0.03150701
-0.065356635 -0.059305836 0.037116975 -0.0013565408 -0.05129074 -0.08284049 0.007984194 -0.0036676447
-0.05518389 -0.079714365 -0.0058687697 -0.002187577 -0.06437225 -0.062157445 0.00268378 0.0050124107
-0.025091087 -0.008880365 0.04337898 0.00751563 0.01920033 -0.0016703272 -0.003968676 0.022848666
-0.0040229326 -0.018596848 0.02725011 0.0031864755 -0.0053996122 -0.0068765446 0.02580585 0.02430804
-0.04497658 -0.05878399 0.0010147063 0.024335774 -0.047130447 -0.05924995 0.01148382 0.0041313954
-0.058600225 -0.0639156 0.0034124553 -0.00039661565 -0.05623374 -0.03743226 -0.0009788286 -0.0033029777
-0.044815466 -0.03981672 0.065775156 0.080106735 -0.053735968 -0.02444283 0.07581772 0.0780002
-0.022380963 -0.04471494 0.076772235 0.08141761 -0.03704922 -0.043652747 0.081249304 0.07077863
0.03513967 0.035652388 -0.09825159 -0.112527944 0.055672627 0.052447677 -0.09181894 -0.12167144
0.053143337 0.043388825 -0.12372331 -0.09779369 0.051258717 0.04514283 -0.12571102 -0.10219034

net.patch_layer.weight f4 [8, 3, 2, 2]
00000000: 8f28 0f3c f549 603c de37 3bbe 8042 19be
00000010: 9256 87be 0675 e5bd 1059 34be 3b32 9d3d
00000020: d9c7 1b3d 7039 c13d 2a69 6dbc c349 7d3c
00000030: f022 cdbe 79a8 11be f834 ffbc db8b f5bd
00000040: 7e7c 4e3e 72dd 643e ce7c c5bc 98b6 123d
00000050: f509 843e ae85 8a3e a89b 33bd e839 4f3e
00000060: 5b90 9e3d 2bf9 2a3e 04df 963e 2684 86bd
00000070: 2bda 72be 181a a4bc 80ab 7ebe a5a2 ae3e
00000080: 6ee3 88be f649 76be 5360 03be 0b38 b8be
00000090: af13 2ebc f125 8f3e 283a 033e d126 263e
000000a0: 341b c43d ba97 f0bc d0b2 bd3d 8f56 2bbe
000000b0: 37d7 95be f81b fbbd 5294 123e 09ed 003e
000000c0: d4a3 e13c 73d8 ba3d b4a7 cb3d 5ed3 ca3e
000000d0: c837 1e3d 844a 193e f341 a43d 2a82 65bd
000000e0: 0ac1 e5bd 0d08 b3be 2030 8dbe 94c5 7cbe
000000f0: b431 9cbd 2239 00bc 5a4d 60be 319d 7c3c
00000100: 9f60 983d 56d6 d23d 6c06 90bc dd2f 1b3e
00000110: 4bce b23d 8574 443e 11e5 adbe 2297 64be
00000120: c4c2 693e 5a6f 8f3e 9959 943e 8c93 8e3e
00000130: d96b 473e b616 d9bd 6bc9 0c3e df71 a0bc
00000140: abb2 b7be a71d 623e 2250 2c3e 743c 82be
00000150: 09fd 88bd a2c2 50bd 267c 4ebc 9dcc 3ebe
00000160: d17a 833e cee3 be3b 0056 6a3e 60d6 873e
00000170: e4d4 613d cd01 223b d09b 3fbe 933e 89be
0.008737697 0.013689508 -0.1828303 -0.14966774 -0.26433235 -0.11203961 -0.176121 0.07675596
0.038032386 0.094347835 -0.014490405 0.015459481 -0.40065718 -0.14224423 -0.031153187 -0.11989566
0.20164678 0.223501 -0.024107363 0.035818666 0.25788847 0.27055115 -0.043849617 0.20236933
0.07742377 0.16696613 0.29467022 -0.06568174 -0.23716037 -0.020031974 -0.2487011 0.34108463
-0.26736015 -0.24051651 -0.12829714 -0.35980257 -0.01062481 0.27958634 0.12815154 0.16225745
0.09575501 -0.029369224 0.092626214 -0.16732238 -0.29265758 -0.12261194 0.14314392 0.12590422
0.02754394 0.09123316 0.09944096 0.39614385 0.038627416 0.14969832 0.08020391 -0.056032337
-0.1121846 -0.3496708 -0.2757578 -0.24684745 -0.076266676 -0.0078261215 -0.21904507 0.015418337
0.07440304 0.102947876 -0.017581187 0.15154977 0.087307535 0.19185074 -0.33963826 -0.22323278
0.22828203 0.28014642 0.28974608 0.27846944 0.19474734 -0.10600035 0.1374871 -0.019585548
-0.358785 0.22081624 0.16827443 -0.25436747 -0.066888876 -0.050966866 -0.0126028415 -0.18632741
0.2567964 0.0058254963 0.22884369 0.26530743 0.05513467 0.0024720312 -0.18711782 -0.26805553

net.patch_layer.bias f4 [8]
00000000: bb3f f43d 788f 683d ed23 f4bd 01f4 28be
00000010: 74e3 723e e491 293e 706d 07be b5b2 84bc
0.11926218 0.056777447 -0.11920915 -0.1649933 0.23719579 0.16559559 -0.13225341 -0.016198495

net.block0.attention_norm.weight f4 [16]
00000000: 6e97 833f 564a 933f 742a 893f 03ae 843f
00000010: 9ef2 873f f917 863f e132 8c3f eabc 833f
00000020: fd75 8b3f 252f 8b3f 81ae 903f f6aa 8a3f
00000030: c508 8b3f 0b83 8f3f 4284 983f 4f92 973f
1.0280588 1.150706 1.0716081 1.0365604 1.0620916 1.0476066 1.0953027 1.0292027
1.0895382 1.0873762 1.1303254 1.0833423 1.0862051 1.1211866 1.1915362 1.1841525

net.block0.attention_norm.bias f4 [16]
00000000: f460 8a3a 4a95 7c3d 58d6 cbbb bbcd 20bd
00000010: f7f9 c13a 0e07 963c ad08 abbc 70a4 aa3b
00000020: 6f3d 9638 fede 593d 888c c4bd e5cd f8bc
00000030: d924 b03c 1dfc dfbc 03b1 3a3d 6e45 1ebd
0.0010557459 0.06166581 -0.00622062 -0.0392587 0.0014799227 0.01831391 -0.02087816 0.0052075908
7.164e-05 0.053191178 -0.09597117 -0.030371616 0.021501945 -0.027341897 0.045578968 -0.038640432

net.block0.ffn_norm.weight f4 [16]
00000000: 65ec 853f fe13 893f d3a8 823f 8bad 8a3f
00000010: 375d 833f f0f2 843f 8a1a 8a3f 6eaa 843f
00000020: 1ef9 863f 7d9c 8b3f 9cd6 8a3f 0e24 8c3f
00000030: a586 8f3f 514f 893f 7f7f 863f 8cbf 833f
1.0462767 1.0709226 1.0207771 1.0834211 1.0262822 1.0386639 1.0789349 1.0364511
1.0544775 1.0907131 1.0846744 1.0948503 1.1212965 1.072733 1.0507659 1.029283

net.block0.ffn_norm.bias f4 [16]
00000000: ae9c 18bb c01b 043d dfd2 e53b 254f 16bd
00000010: ab57 1cbd ec88 df3c f555 ba3b 54ae 39bc
00000020: 1ac6 b93c 96b5 55bd 7d70 42ba fec5 72bd
00000030: 2f62 a1bd 535e 36bd 3a6c b23c 4d7e 1cbd
-0.0023286748 0.032253027 0.007013663 -0.03669657 -0.038169544 0.02728697 0.0056865164 -0.011333067
0.02267747 -0.052175127 -0.0007417275 -0.05927085 -0.07880055 -0.04452355 0.021780122 -0.038206387

net.block0.ffn.fc1.weight f4 [8, 16]
00000000: 2c16 25be a589 96be 3646 6f3e 9c9d 603e
00000010: e2ad 46be de88 7c3d cc51 b43e cc1d 8dbc
00000020: 88e6 cb3d 330b 6dbe 4e4d 243e 8223 f2be
00000030: 10be cdbe a6bd 6ebe 5475 013f 09ff 06be
00000040: 2e2b e839 62a1 55be 130d e43e 9e1f f33e
00000050: bfed dabe 8d93 debe 59ba cfbe 4dec cfbc
00000060: 08d7 adbd b07c 4ebe e786 04be 173b 3b3e
00000070: 3e8e 26be 1669 de3d 1309 1abe 1466 a8be
00000080: 0bee bb3d 1e47 f83e e0c8 b3be bb9c adbc
00000090: 81c8 3dbe a700 073f 4f91 f2be d765 fbbe
000000a0: 03d6 093f 5a50 b1be 2d81 813d 9b41 51bd
000000b0: 826e d3bd 6253 18be b277 b83e a018 af3d
000000c0: 6966 0bbf 19b0 93be 8985 39be f5ff a03e
000000d0: 497c acbe a94d dd3e ed8d 4abe d242 a3bd
000000e0: 0f91 a43e d41f 7b3e 8bb0 dd3e bae1 a13e
000000f0: 0dc1 11be e1ad 90be ffb1 acbd c129 003f
00000100: 708c 05be 2d6d d4be c2a9 093e 1578 fb3e
00000110: ce58 26be b6dd e2be d693 efbe 3629 043e
00000120: 43f9 41bd 243e 3dbe 65cb c23d 9cbf 843e
00000130: 1f0c ef3e e737 bc3e 12ba 28be fdba e8be
00000140: 2522 f2be 4d39 023f a41e 893e 1ba3 6e3e
00000150: e175 bdbe b9b1 033f 5951 d43e 9652 d43e
00000160: 92f5 e9be 7d83 95be b4d4 d9be 8207 cc3e
00000170: 2aea 9bbe 1974 72be 11ed a53e 37f6 a5bd
00000180: 47bc 4dbe 8422 e5bd 2a79 28bd 9a0d debe
00000190: 514e e03e b065 75be 634f 773e 6e4d 033f
000001a0: b3d8 883e 2ea3 803d 96eb 033f 8da0 5f3d
000001b0: cb3d 7dbe c34c f73e c3c4 f63d fe39 1dbf
000001c0: 14c7 c5bd 8c49 89be 1880 cd3e 9569 14be
000001d0: 5e73 fdbe 86bf 2abc d2ba b93e 31c6 bd3d
000001e0: 5042 763e 71da 0d3e eb92 4b3e 8013 93bd
000001f0: ba28 fbbd 691e 05bf 0106 b9be 63eb f73d
-0.16121739 -0.2940189 0.23366627 0.21935123 -0.19402269 0.061653964 0.35218656 -0.017226122
0.0995608 -0.23148803 0.16045114 -0.47292715 -0.4018407 -0.23314533 0.50569654 -0.13183226
0.0004428266 -0.20862344 0.44541225 0.4748506 -0.4275951 -0.43471947 -0.4057186 -0.025381232
-0.084882796 -0.20164752 -0.12942086 0.1828426 -0.16265199 0.10859887 -0.15042524 -0.3289038
0.091762625 0.48491758 -0.35114193 -0.021192899 -0.18533517 0.5273537 -0.47376487 -0.49101135
0.5384218 -0.34631616 0.063234664 -0.051087957 -0.10323812 -0.14875558 0.3602882 0.08549619
-0.5445314 -0.2884529 -0.18117346 0.3144528 -0.33688572 0.43223312 -0.19780703 -0.07971729
0.3214192 0.2452386 0.43298754 0.31617528 -0.142338 -0.2825766 -0.084323876 0.5006371
-0.13041854 -0.41489545 0.13443664 0.49115053 -0.16244814 -0.44309777 -0.46792477 0.12906346
-0.047356855 -0.18480736 0.09511451 0.25927436 0.46688935 0.367614 -0.1647723 -0.4545516
-0.47291675 0.50868684 0.2678119 0.23304407 -0.37003997 0.5144306 0.41468313 0.41469258
-0.45695168 -0.2920188 -0.42545092 0.39849478 -0.3045209 -0.236771 0.3240743 -0.081036024
-0.20091353 -0.11188224 -0.041131176 -0.43369752 0.4380975 -0.23964572 0.24151377 0.51290023
0.26727828 0.06281124 0.5153135 0.054596473 -0.24730603 0.48300752 0.12049248 -0.61416614
-0.09657112 -0.26813924 0.4013679 -0.14493401 -0.4950208 -0.010421639 0.36275345 0.09266318
0.24048734 0.1385286 0.19880264 -0.07181454 -0.12263627 -0.5199953 -0.36137393 0.12105443

net.block0.ffn.fc1.bias f4 [8]
00000000: 9a01 1a3c c1c2 adbc b07c 243d 07a5 4bbd
00000010: e8d1 3dbd 497b 1d3d d972 e53c 6df9 d73c
0.009399796 -0.02121103 0.040157974 -0.04971793 -0.04634276 0.038447652 0.028008865 0.026364053

net.block0.ffn.fc2.weight f4 [16, 8]
00000000: fc84 93be 9cd7 c53d 8069 403e a142 c53d
00000010: 6ed3 c7be b278 ec3e 811b a8be 7c42 063f
00000020: 5e84 ecbe b061 a4bd 9608 9a3e 69d7 03be
00000030: 2ee9 fc3e d961 b8be cbce 04bf bb5c e2bd
00000040: d9db f73d 2de6 da3e da68 8dbe 5499 d93d
00000050: bbb5 b1bd 96b4 d7bd 9c94 f83e 37df ffbe
00000060: 2dec 1a3d 44c3 df3e 543a a5bd 4203 a93e
00000070: c25a c0bd 37f4 e13e 2842 f9be b349 44be
00000080: e20a 06be c3c6 1e3e d6b3 433e 944e b33e
00000090: 63e4 bb3b 412c d73c 4987 a43e 499a 6fbe
000000a0: d091 023f 7f75 c0be 31b4 ffbc e154 86bd
000000b0: 41c1 013e f64c bf3e b0ae cfbd 6bd1 fabe
000000c0: b6be a13e d4e7 e13d 4e28 693e dc5d acbe
000000d0: 6d76 6b3e 426d 003f 4302 c93c 8ed8 07bf
000000e0: 5468 9d3e ddd3 c6be 1724 2f3e 3431 b13d
000000f0: 6666 2fbe 9ab2 723e 5b29 0ebf dca7 e43d
00000100: 861b 86be 9941 89bd 3b5e 4f3d 265d d33e
00000110: 37cd a6be 5418 903e 7645 1bbd 7f37 88be
00000120: c365 03bf db6c dfbe 0bf0 093f fea0 61bd
00000130: faeb dc3d 3e81 233e efd0 6d3e f4cb 063f
00000140: 66f0 d03e 05e3 abbe 79bb 04be bd2d 92be
00000150: 6bd4 90be c1a3 833d 02e3 1a3f 2644 aabe
00000160: c92d 983e ee4b 58be be64 06be 17dc dd3e
00000170: 0c9e 17be 2dcd 00bc ab5a 76be bac7 043f
00000180: 090e 02be 56e0 a0be 6fb8 1b3e c9b3 91be
00000190: 1843 93be bb4c e0bb ca23 cc3e a1d7 c2bc
000001a0: bfef 8d3e 2cd1 c33e 02f3 a03e c6d1 a9be
000001b0: ea62 edbd 2d80 f6bd 8330 b7be 9189 f2bd
000001c0: 1dd7 dc3e ca96 c63e 3f3a b33d 8bf7 c83d
000001d0: 7b29 9cbe a206 d83e 6861 87be 1514 ccbe
000001e0: 9f0e 163e a749 973e 5532 febe 9024 da3e
000001f0: b8ea bc3d b4dd d7be 4638 edbc 8d6d cc3e
-0.28812397 0.09660265 0.18790245 0.09631849 -0.39028496 0.46185833 -0.32833484 0.524452
-0.46194738 -0.08026445 0.30084676 -0.12875141 0.49396652 -0.36012152 -0.5187804 -0.11052843
0.121024795 0.42753735 -0.27619058 0.10624948 -0.086772405 -0.10532491 0.4855088 -0.49974987
0.03782289 0.43703663 -0.08067766 0.33010298 -0.09392311 0.44131634 -0.48683286 -0.19168739
-0.13090089 0.15505509 0.1911157 0.35020888 0.005734013 0.02626622 0.32134464 -0.23398699
0.5100374 -0.37589642 -0.031213852 -0.06559158 0.12671377 0.37363404 -0.10140741 -0.48987898
0.31590813 0.11030546 0.22769281 -0.3366536 0.22994395 0.50166714 0.024537211 -0.5306481
0.3074366 -0.38833514 0.17103611 0.08651963 -0.17128906 0.23700944 -0.55531853 0.11164829
-0.26192874 -0.06701965 0.050626975 0.41282004 -0.32578442 0.2814356 -0.03790804 -0.2660484
-0.5132715 -0.43637738 0.538819 -0.055085175 0.107871965 0.1596727 0.23224233 0.5265496
0.4080841 -0.3357164 -0.1296214 -0.2855052 -0.28287062 0.06427718 0.60502636 -0.33255118
0.2972243 -0.21122715 -0.13124368 0.43331978 -0.14806384 -0.007861418 -0.24058025 0.5186726
-0.12700666 -0.31421155 0.15207075 -0.28457478 -0.28762126 -0.0068450845 0.39871055 -0.02378446
0.27721974 0.38245523 0.314354 -0.33167857 -0.11591132 -0.12036166 -0.357792 -0.11842645
0.43132868 0.38786918 0.08751344 0.0981284 -0.30500397 0.4219256 -0.26441503 -0.3985907
0.14654015 0.2954838 -0.49647775 0.4260602 0.092244565 -0.42161334 -0.028957497 0.3992733

net.block0.ffn.fc2.bias f4 [16]
00000000: 77e8 e83b a3e5 e5ba 43ba 6fbb bbe7 8fbb
00000010: 2db2 43bc 5b46 e33c e0e9 e63c 6c2c 773c
00000020: 9add c43b b572 973b ccd5 b8bc 7d13 bfbc
00000030: 4967 26bc dd18 d33a dd38 e63c f867 35ba
0.00710779 -0.001753975 -0.0036579526 -0.004391638 -0.011944336 0.027743509 0.028187692 0.015086275
0.0060078623 0.0046218284 -0.022562884 -0.023324722 -0.010156461 0.0016105432 0.028103286 -0.00069200946

net.block0.attn.query.weight f4 [16, 16]
00000000: 88b8 673e a9a0 a9bb 9568 ba3d 5810 96be
00000010: 6825 003e 8c23 ae3e cdd1 083e f514 80be
00000020: d109 c6bd efab 403e b2d8 88be b079 64be
00000030: bb47 213e 5654 a6be fe36 363e ad55 b2bc
00000040: 99f0 67be 57b4 b93d c753 d73d 58e0 7b3e
00000050: 379a e53d 3746 52be 0c5f 863e 8588 453d
00000060: f514 d43d f23d 2fbe 94e5 203e d6cd 5f3d
00000070: d7c3 3ebd eff4 2f3e cb26 3c3d 2e7b 9e3d
00000080: 99ea d63d eff3 cabb 7ec7 96be 9c53 6f3c
00000090: d7a9 fc3d 2b61 78bc 95e3 25be 5734 0ebd
000000a0: da71 01be e261 733e 9299 a6bd 5929 7cbb
000000b0: 47b3 433e 8e0f 1fbe 9006 333e 55fb d03d
000000c0: 7963 ffbd 383f 9fbd 314d 0f3e 5629 a03e
000000d0: 4ed0 7ebe 8565 8abe e76c 783e ea67 aebd
000000e0: d94c 1b3e a6e0 7cbe 679b a83e df5d 9cbd
000000f0: 96af 133d 41b4 d43e 6269 87bd 90e9 f83d
00000100: 6bbe c23e 6bdc 733c 52cd 15be 8b54 7dbe
00000110: f8d4 d63d 3b75 413e 3855 cdbd 3fd4 25be
00000120: 81ba c8be e01f 2e3e 21cf 32be f7d6 f3bd
00000130: e00f 9a3e 0d71 9b3d 6538 02bc 1161 1fbe
00000140: c367 443d 1db7 c5bd f734 a4be 2f9e aa3d
00000150: 06c6 993e b777 903e ef9c 0dbc 6c77 a8be
00000160: 2fa8 0abe f275 cc3e 1209 a5be f150 4f3d
00000170: 0769 3b3e 1e26 89bb 86fc 443d b329 30bd
00000180: 1457 d2bd 628f b43d cdbd f2bc 5ba3 46bd
00000190: e101 ac3e 11e9 bb3e 69d0 dd3d a36d 6d3d
000001a0: 7762 0a3d 7a34 f33d 3344 b0be 1ed3 6cbe
000001b0: 20f6 8d3d 70a4 92be 1721 7f3e a1a7 30bd
000001c0: 5f40 393e 48fc 3e3e 9f36 ac3d 7eab 4dbd
000001d0: 154f 9cbd 7f9c 28bd f923 e9bc e48c d5bd
000001e0: fe02 e8bc a943 05be 84a3 c7be a202 d139
000001f0: d0fd 903e 3f2f c2be 6bba 563e 0643 acbe
00000200: ede1 cd3d f4b5 90bc ef24 af3e 4149 22be
00000210: 9c5a a7be be7c a33d 5a1a 9f3e a3b6 793e
00000220: eb6a 793e 3d59 83be 773a 853e 6215 18be
00000230: 9e45 2abd 50ae d8bd e198 25be 87b3 053e
00000240: 1f69 263d 4f8d c83d f138 bdbe 5d3c c2be
00000250: fc87 753e a3da 0e3d d09a 98be 3dfe 53be
00000260: ecd1 b6be d3df 3fbd d6c6 91bc b8d9 03bd
00000270: afe9 2c3e 9dae 96be 55bc 733e dc5d 0ebe
00000280: 5d92 b0be 3d60 e3bd 0b1b c73e 0a4f 99bd
00000290: 9791 d6be 6dce 0bbe 3090 b73e 40a4 43bc
000002a0: 000c 733e f6a5 443c 8f67 8a3e 3f88 753e
000002b0: 2e38 c43d 036b b53e c2a4 9fbe c16e 513e
000002c0: fbfc 743c 54fe d13d 456f 11be 7e41 813e
000002d0: 2a0e 3fbe 3b35 b8be 7986 313e c29e 43bd
000002e0: 6b38 293e 2984 89be 4432 72bd f316 d63d
000002f0: 8c53 29be 8ba5 923e f14e 8ebd 6e83 9f3e
00000300: 13f4 a1bd c208 58be b543 963e d272 133e
00000310: 2d66 a6bd 242b 56be 6218 053e 892e 7b3d
00000320: 4bc4 f33d 4ea5 afbe 6c1c 133e 5991 89bd
00000330: 2116 3abe d593 913e b998 a5be 5969 b4bc
00000340: addb 42be 984a 4fbe 49d5 2a3e 2daa 313e
00000350: 9a4f 20bb 35cf 9abe 77b0 e93d 2934 813e
00000360: 76c3 b53e b806 1ebe 13f4 913b c69b 5b3e
00000370: 88d1 b73c 8ac2 16bc f438 8fbe fa9c 7e3e
00000380: c1c6 1fbe b9d1 c0be 0450 03bc 3b09 7b3e
00000390: 0d6b 68be f2f7 fe3c 5b93 ae3e b35e 1f3e
000003a0: eaca 0d3e 2cdf 55be 7a1e 1a3e 1f8e 503e
000003b0: f0b5 a5be 6bad c53d f43f b1be b47a 9d3e
000003c0: 44cf d0bc ff3c bc3e fbc0 4bbe fe39 8fbe
000003d0: 450f 823e 5272 313e d8c9 153d c11e 86bc
000003e0: 09cb c1be 722a 883e f33a 40be ae93 81be
000003f0: c9ec 923e 3431 5f3d 9b9b d2bd 2fbc 28be
0.22628987 -0.005176623 0.09101979 -0.29309344 0.1251427 0.34011495 0.13361283 -0.2501599
-0.09669841 0.18815587 -0.26727825 -0.22312045 0.15750019 -0.32486218 0.17794415 -0.021769369
-0.22650374 0.090676 0.10514026 0.24597299 0.11211055 -0.20534597 0.2624439 0.0482259
0.1035556 -0.17113474 0.15712577 0.05463966 -0.046573486 0.17183279 0.045935433 0.077383384
0.10493965 -0.00619363 -0.29449075 0.014607336 0.12337082 -0.015159885 -0.16200097 -0.034717884
-0.12641087 0.23767808 -0.0813476 -0.0038476794 0.19111358 -0.15533277 0.17482972 0.10204188
-0.12470145 -0.0777573 0.1399429 0.31281537 -0.2488415 -0.27030578 0.24260293 -0.08515914
0.15166034 -0.24695072 0.32931063 -0.07635092 0.036056124 0.41543773 -0.06611897 0.121539235
0.38035902 0.014884095 -0.14629105 -0.24739282 0.10489839 0.18892376 -0.1002602 -0.16194247
-0.3920479 0.17004347 -0.17461826 -0.11906236 0.30090237 0.07589922 -0.007948016 -0.15564372
0.047950517 -0.09654067 -0.3207166 0.083309524 0.30033892 0.28216335 -0.008643373 -0.32903612
-0.1354072 0.39933735 -0.32233483 0.0506143 0.18301784 -0.004185452 0.048092388 -0.043008517
-0.10270515 0.088164106 -0.02963152 -0.04849563 0.33595183 0.36701253 0.10830767 0.057965886
0.03378531 0.118752435 -0.34427032 -0.2312741 0.0693171 -0.2864108 0.24914967 -0.043128613
0.18090962 0.18650925 0.08408856 -0.050212376 -0.07632271 -0.04116487 -0.028459536 -0.104272634
-0.02832174 -0.13014092 -0.3899194 0.00039865548 0.28318644 -0.3792667 0.2096955 -0.33644885
0.100528575 -0.017664887 0.34207866 -0.15848257 -0.32686317 0.07982777 0.31074792 0.24386077
0.24357192 -0.2565402 0.26021168 -0.14851907 -0.0415703 -0.105801225 -0.161716 0.13056765
0.040627595 0.097925775 -0.36957505 -0.3793668 0.23977655 0.034876477 -0.29805613 -0.20702453
-0.35707033 -0.046844315 -0.017795008 -0.032190055 0.16886018 -0.29430094 0.23802312 -0.13902992
-0.34486666 -0.1110234 0.3888782 -0.07485779 -0.4190795 -0.13652964 0.35852194 -0.011941016
0.23735046 0.012002459 0.27032134 0.23977755 0.09581028 0.35433206 -0.31180388 0.20452406
0.014952893 0.10253587 -0.14202602 0.2524528 -0.18657747 -0.35978112 0.17336453 -0.047758825
0.16525428 -0.26858643 -0.05912997 0.10453596 -0.16535777 0.28641924 -0.06948651 0.3115496
-0.079078816 -0.21097091 0.2934853 0.14399269 -0.08124957 -0.20914894 0.12997583 0.061323676
0.11902674 -0.34305805 0.14366311 -0.06717176 -0.18172504 0.284331 -0.3234308 -0.02202289
-0.19029112 -0.20243299 0.16682924 0.17350073 -0.0024461509 -0.3023621 0.11410611 0.25235108
0.35500687 -0.1543225 0.0044541447 0.21446142 0.02243878 -0.009201655 -0.2797314 0.2486457
-0.15603162 -0.37660006 -0.008014683 0.2451524 -0.22697087 0.031124089 0.34096798 0.15563469
0.13846937 -0.20885915 0.15050688 0.20366715 -0.3236537 0.096522175 -0.34619105 0.30757678
-0.025489457 0.36765286 -0.19897835 -0.27973932 0.25402275 0.17328766 0.036569446 -0.016372086
-0.37850216 0.26594883 -0.18772487 -0.25307983 0.28696278 0.054490283 -0.10283586 -0.16478036

net.block0.attn.query.bias f4 [16]
00000000: 5cb7 a53e 9c08 0ebd 98cc 993e 81e8 66be
00000010: 9cce 20bb 6de6 ba3e 51a1 673e 2be0 c23e
00000020: 1996 46be 0d0b b2bc 70bc 48be 922a b2be
00000030: 03c5 ebbc d25e 663d 4bc4 a2bd f30f e03d
0.32366455 -0.03467618 0.30038905 -0.2254963 -0.0024537211 0.36503926 0.22620131 0.38061652
-0.19393195 -0.021733785 -0.19603133 -0.34798104 -0.028780466 0.05624277 -0.07947596 0.10940542

net.block0.attn.key.weight f4 [16, 16]
00000000: da94 eebb 387e a0be d5e2 cd3e e5ca eebd
00000010: 1fb8 25be ace6 3fbe 198f b13e 23f2 9ebd
00000020: e790 613c e40c a9be 7aa5 623c 6f36 bfbd
00000030: c6bf 88bc ab5f 7f3d 028a 43bd fec2 33bd
00000040: e90a 4c3d 7878 b0bc 36b4 38be 3ff9 393d
00000050: e2e3 d9bd 1751 6f3e 3f3a 6bbe 6d02 5c3d
00000060: d7b5 463d 966b 0fbe 1950 153d c23a 6a3b
00000070: 8ebe 683d 39e4 2038 ebc7 903e a8d5 313e
00000080: d514 98be 7e04 0cbd 578b 49bd e67d b6bd
00000090: dac1 233e 7c78 dbbd 7642 703c 3819 a8be
000000a0: 9d6d 41be 367c 83bd 98be 9cbe 6834 9ebe
000000b0: f408 b2bd 90b8 96be 5d67 babe dbe4 0fbe
000000c0: e2fb b23d 548a 9abd db88 a0be 3e79 e4bd
000000d0: 251f a3be ce63 a23d 2b59 97be 8e43 aabd
000000e0: f8e6 423e 71f2 3cbd c0a1 e8bd 50dc 563e
000000f0: 0836 293e 9a8f af3e c9bf a63d f3e0 9fbd
00000100: 4a02 1cbe b41d 1abe a95a ae3e 982c f8bd
00000110: a1f3 843d 2516 90bb ef84 52bb db78 5ebe
00000120: 6f84 ec3c b077 c6be b6e4 89bc 4f07 86be
00000130: cf03 973b ee9c a8be 2ff2 7b3b 8bcb 8ebe
00000140: 0160 acbe c503 1dbe 005a b13e ae5c b2bd
00000150: 6fd2 d5bc d2ea d33d 4f0b c43d d0f3 1d3c
00000160: 4ecc a8be 44eb 68be b7d7 54be f5d4 0f3e
00000170: ec02 7ebc 5b4e 99be 58be e5bd 3d28 12bd
00000180: ec10 6fbe c7bd a3be 861c 9c3d d91c b13e
00000190: 1078 ccbd 0d50 a3be 0ef3 ad3d 3631 09be
000001a0: 92b2 0b3c 62d6 11be 6c40 18be 6591 55be
000001b0: 73ac 17be 8d1a 52be 50fd 933d bc4e 83be
000001c0: c10a d7bd e96d 89be 4c4a 9bbd 9ee1 3f3e
000001d0: 9466 f73d 4351 41be 3a2a 943c af58 0f3e
000001e0: 7a47 453e 3410 813e 8aea 9c3d 8929 b0bd
000001f0: c92f 5d3e a7e8 f3bb ad8d 0d3e 92ee bd3d
00000200: 0bfd 653e 979c 733d ee4e c43e 34d1 a4be
00000210: 45bc d93b 2c62 33bd baab 79be 2859 4b3e
00000220: 68f4 f8bd 1ee8 79be 80b7 75be d10e 8dbe
00000230: 8394 453d 4f39 aabe ea56 9abe 1b0f c6be
00000240: 4744 d7bb b4ae 973e 4d76 9cbe b0f8 173e
00000250: 2cbc 2f3c 558b 61bc cc91 d63c a58e 863d
00000260: 9189 933d 3ecd 523e 8c73 30bd 7367 853e
00000270: 274e 453e 4745 1cbd fcfc 893e 8a8e c63e
00000280: 0184 843c 5531 77be 3014 8d3e 42d7 90be
00000290: 6cc0 8b3e 3877 df3d 89f5 a03d 11b8 87be
000002a0: 0183 9cbe 53b5 053d 7d24 15bd 6c68 bbbe
000002b0: dcba 42be e9d7 aebe 0255 79be eae6 82be
000002c0: fc4a a13e 1cdc 69be 2a81 9a3e ac7e 2a3e
000002d0: 1328 993e 85a9 57be 3325 883d d2a6 623b
000002e0: 85a4 e93d 779e 9cbe 342b 9a3c 4fd0 6a3d
000002f0: 2cc5 81be 9985 a2bd 198f 2f3e 23ff acbe
00000300: a367 563e 4413 95bd 0c98 6a3e 526a 223e
00000310: 9139 c63e 62a1 873e 79f5 ecbd 6d19 213e
00000320: 3b33 aebe f90e 63be 8f93 40be 4b97 5abe
00000330: aa05 303e c5b0 c2ba 29d6 bb3d 5991 a53c
00000340: 15f4 79bd 57ee 59be 88cf 4b3e 5e05 c9bc
00000350: e99a 9e3e e18e 4fbd dedb 24be 9f0d 273e
00000360: e777 2fbe 8b53 83be b2d7 0d3d 8b42 f03c
00000370: 25fd 0abe 106d 2bbe 5fa5 80be eb5b b7be
00000380: 12aa 5f3e eb30 95be 0e08 b93e 1ce7 94be
00000390: 4ec7 153e edcb 7e3d 10e1 463d 7c9a 243e
000003a0: f717 873d bb51 a53c 1822 83be 054c a3be
000003b0: a2ba 8dbe ff28 e5bd 72b6 2e3e e24c 4dbe
000003c0: 9284 06be 1abd b3bb 3106 a6bd 6e79 7f3e
000003d0: 6a31 d9be 1814 67be 132d 8a3e 45b5 e53d
000003e0: 1d49 ad3d 4969 f93d cc49 bc3d 6a3a 15bd
000003f0: cfa7 3bbe 5eb9 8e3e 7c6c 0a3d 3850 5a3d
-0.007280928 -0.31346297 0.40212122 -0.11659793 -0.16183518 -0.18740338 0.34679487 -0.07761028
0.013767458 -0.33017647 0.013833398 -0.09336554 -0.016693007 0.062347095 -0.047739036 -0.04388713
0.049815092 -0.021541819 -0.18037495 0.045403715 -0.10639168 0.23370777 -0.22971438 0.05371325
0.04851326 -0.14005885 0.03645334 0.0035740589 0.056822352 3.835952e-05 0.28277525 0.1736666
-0.29703394 -0.03418397 -0.04920515 -0.08910732 0.15991917 -0.1071634 0.014664283 -0.3283174
-0.1888947 -0.06420176 -0.30614161 -0.30899358 -0.08693114 -0.29437685 -0.36406985 -0.14052145
0.08739449 -0.07545915 -0.31354412 -0.111559376 -0.318597 0.079291925 -0.29560217 -0.08313666
0.1903342 -0.046129648 -0.11358976 0.2098248 0.16524518 0.34289247 0.08142049 -0.078065775
-0.15235248 -0.15050393 0.34053543 -0.121178806 0.06491781 -0.004397171 -0.0032122692 -0.2172579
0.028871743 -0.3876319 -0.01683269 -0.2617745 0.0046086083 -0.32932228 0.0038443913 -0.27889666
-0.33666995 -0.15333469 0.34638977 -0.087090835 -0.02610132 0.10347523 0.095724694 0.009640649
-0.32968372 -0.22745997 -0.20785414 0.1404608 -0.015503626 -0.29942593 -0.11217946 -0.035682905
-0.23346299 -0.31980726 0.07622628 0.34592322 -0.099838376 -0.3189701 0.08493625 -0.13397679
0.008526461 -0.14241937 -0.14868325 -0.20856245 -0.14811878 -0.20517941 0.0722605 -0.25646007
-0.10500098 -0.26841667 -0.075825304 0.1873841 0.12080112 -0.18878655 0.018086541 0.13998674
0.19265547 0.25207675 0.07661922 -0.08601672 0.2160026 -0.007443506 0.13823576 0.09274019
0.2245981 0.059475508 0.3834147 -0.3219086 0.006644758 -0.043794796 -0.24381915 0.19858229
-0.12155992 -0.24404952 -0.23995781 -0.27550367 0.048237335 -0.33246848 -0.30144435 -0.386834
-0.0065694186 0.29625475 -0.30559006 0.1484096 0.010726016 -0.0137661295 0.026192568 0.06570176
0.07203973 0.20586106 -0.043078944 0.26055488 0.19268094 -0.038152006 0.26950824 0.38780624
0.016176226 -0.24139912 0.27554464 -0.2828923 0.27295244 0.10911411 0.07859332 -0.2650762
-0.30568698 0.032643627 -0.03641175 -0.36603105 -0.19016594 -0.341491 -0.24348834 -0.25566798
0.3150252 -0.22837871 0.3017667 0.16649884 0.29913387 -0.2106076 0.0664772 0.0034584296
0.11408333 -0.3058965 0.018819429 0.057327565 -0.25345743 -0.07935638 0.17144431 -0.33788404
0.20937972 -0.07279065 0.22909564 0.1586087 0.38715795 0.26490313 -0.11570258 0.15732355
-0.3402346 -0.2217368 -0.18806289 -0.21346776 0.1718966 -0.0014853707 0.09171707 0.020210909
-0.06102379 -0.21282326 0.19903386 -0.024538692 0.30977562 -0.05067337 -0.16099498 0.1631379
-0.17135583 -0.25649676 0.03462953 0.029328605 -0.1357313 -0.16740823 -0.25126168 -0.35812315
0.2184222 -0.29138884 0.36138958 -0.29082572 0.1462681 0.062206198 0.04855448 0.16074556
0.06596368 0.020180574 -0.2561195 -0.31893936 -0.27681452 -0.1118946 0.17061785 -0.2004886
-0.13136509 -0.005485189 -0.0810665 0.24948665 -0.42420512 -0.22566259 0.26987514 0.11216215
0.08461211 0.12178285 0.09193763 -0.03643266 -0.18325733 0.278758 0.033794865 0.05329916

net.block0.attn.key.bias f4 [16]
00000000: 623d 85bd c685 0bbe 93ee 96bd bb32 5cbe
00000010: 353d 403e ab8b cf3d 3840 01be f502 afbd
00000020: 99a7 e43d ee4b babd b433 863d 100a 8e3d
00000030: b6d5 21be 3a69 813d 9a8e 7f3c 69dc 5f3e
-0.065058485 -0.1362525 -0.07369723 -0.21503727 0.18773349 0.101340614 -0.12622154 -0.08545486
0.11164779 -0.09096514 0.0655283 0.06935513 -0.1580418 0.063188985 0.015597964 0.21861424

net.block0.attn.value.weight f4 [16, 16]
00000000: 1c5f 9dbd 17ff 623d 7313 443e e9b8 5fbe
00000010: ee8c a73c 8d9a 833e ef42 2cbe 7952 843e
00000020: c1f9 573e d631 6b3e 4eb5 1bbc 59d4 6c3e
00000030: fd61 d5bd 1557 8abd da83 153e 705a 1f3c
00000040: 8b53 033e bf27 9e3e f29a 0fbe 4361 0c3e
00000050: 55ba 433d 6f64 ed3d f415 ae3d abb0 1abc
00000060: db69 0cbe 782b 4a3e 1af6 e9bd bc01 433e
00000070: ce3e 80be 8b8d acbc 662a 54bd 9f9e 0b3e
00000080: cd72 323c d1ee 20bd 27f5 9ebc 5cdf 9f3d
00000090: ad8d 843e 36fd 2cbe 11a0 443d e78b 1fbe
000000a0: 211d 4b3e f103 603e e58e 98bc 9300 c7bd
000000b0: 3b71 1ebe 6442 313e 97b0 fabb 839c 4f3e
000000c0: 650e 1a3e f2b6 f03d 4ccb 423e a2b5 21be
000000d0: 0945 c43d db79 babd 7cc0 1e3e 1c1d a4bd
000000e0: b579 d4bc b2bf 20be 5a1c 6abe 4632 b33d
000000f0: 0a17 883d e380 d53c e31f 813e 116a 52be
00000100: 099e b63d 00c9 30be cb10 293d 7ba4 58bd
00000110: aa73 1d3e 24ca 5f3e 38b4 673e a938 ea3c
00000120: cee1 583e 695e 31be f078 1bbe 1620 343d
00000130: c3d6 183d d137 38be 08b1 22be 358f 843c
00000140: f416 3fbe b5c9 8fbc 4d6c e63d 8681 6b3d
00000150: 677c 9fbd bc0e 2dbe db9a 61be 0e97 10bd
00000160: 7233 2a3e 25e7 bf3c f605 6cbe 2f82 56be
00000170: 199c 923c 4c37 99be 9a57 80be 37e1 a03e
00000180: 9f5c dcbd 60d7 8d3d 5b4b bbbd 252f 6dbe
00000190: e34b 06bd 47fd c33d ca41 27be b0ec 173a
000001a0: 5b9f 24bd 8aca 83be 32ae 523e c32d 553e
000001b0: fce3 2d3e 1068 64bd a902 593e f1aa acbe
000001c0: 5b64 63bd 27f4 dbbc 1f6d c5bd c8dc ce3d
000001d0: bc68 f2bd 2a6e dabc 1f1c 9fbd 11ff 69be
000001e0: e825 4cbc d0d3 46be ceb3 0b3e a005 063e
000001f0: f07e 763e b0c4 b0bd ff7f fbbc e165 ec3d
00000200: af80 873e 2b03 a13e 50de 27be 225a 62be
00000210: 8adf 7bbe 63a7 ecbd 610e 443e 848e 8b3d
00000220: a826 a63e 9b71 793e f88d 4c3d 582e e0bd
00000230: be96 a83e 325c 933e 83a1 3c3e de88 bbbd
00000240: 730b 543e 4d2f 53bd 3412 5a3e fdcd e83d
00000250: 2481 fd3d 50c1 71be 946e e9bd 022b a03d
00000260: 3339 54bd d48d 74be 2261 743e 6d53 7e3b
00000270: cd6e 383e 64ff 4bbe faf3 b43d 4c02 aebd
00000280: b1f7 ddbd d641 0cbe 4634 7fbd c6e1 0b3e
00000290: 70bc 8cbc 14dd 413e 89d0 893d cb72 38bd
000002a0: a2a3 67be 7e52 a4be 25b4 f2bd 6ab0 8ebe
000002b0: 5cbf 06be b030 a2bd 073a ecbd 0ea0 2abe
000002c0: 0ded 223e 008f ad3d 9377 eebc 1f2c 96bd
000002d0: b0f2 003e 69b5 453e 1272 45be 69f2 babd
000002e0: 6c3f 0b3d 13bf aebd 3fcc 843e cc27 283c
000002f0: ab5f 5c3e f7ec 6d3d 76d0 b7bc d22b c0bd
00000300: 35eb afbd 0a08 833d b394 bb3d deb1 9dbc
00000310: c160 8f3e cf65 1fbe ae3c ab3d a102 8c3e
00000320: 77ff 05be da46 063e fd7b 64bd a8c2 7bbe
00000330: b0b4 4ebe cf85 90bb 4477 41be a085 383b
00000340: 054a 883e 72b7 2f3e 8900 44bd ef8a 603d
00000350: adbb 31be 75ed 55be e5af 50be e72c 80be
00000360: 1aff 113e 1b4f f63d 1e1d 4dbd 4972 42be
00000370: 0451 673e af90 38bd 0d9a 5f3d 3b77 26be
00000380: b998 2cbe 5a65 303b 8769 40be 77e4 efbd
00000390: 583a 433e 7f99 19be 300f 89bd d03a 4cbd
000003a0: 9a6e 353d 9c58 8bbe df77 263c 1031 ac3d
000003b0: eccd e8bd 6a4b 39bc 2a46 a2be d6d2 d13d
000003c0: c530 f33d e1b1 cbbd 8190 29be 8a6c b73d
000003d0: 89e3 2f3e 6ec8 3ebd d028 e73d 4de9 2e3d
000003e0: 33a9 06be d17e e3bc fb37 6e3e 5251 96bc
000003f0: e314 62be 2ef4 49bd 09ba ea3d 1520 d2bd
-0.07684156 0.055419054 0.19148044 -0.21847881 0.020452943 0.2570385 -0.16822408 0.25844172
0.21091367 0.2296823 -0.009503676 0.23127879 -0.104190804 -0.06754891 0.14601079 0.009726152
0.12824838 0.308897 -0.1402395 0.13708977 0.047785122 0.11591422 0.08500281 -0.009441535
-0.13712256 0.19743145 -0.11423893 0.1904363 -0.25047916 -0.021063587 -0.051798247 0.13634728
0.010891628 -0.039290253 -0.019404007 0.07806274 0.2588934 -0.16893467 0.048004214 -0.15580712
0.1983533 0.21876504 -0.018622825 -0.097169064 -0.15472881 0.17310482 -0.0076504457 0.20274548
0.15044554 0.11753644 0.19022864 -0.15791944 0.0958348 -0.09105273 0.15503114 -0.08013365
-0.02593694 -0.15698126 -0.22862378 0.08749823 0.06645019 0.026062435 0.2521964 -0.20548274
0.089168616 -0.17264175 0.04127578 -0.052891236 0.15376154 0.21854454 0.22627342 0.02859147
0.21179888 -0.17321171 -0.15182853 0.043975912 0.037314188 -0.17990042 -0.15887845 0.016181568
-0.186611 -0.017552236 0.112511255 0.05749657 -0.077874 -0.16900152 -0.22031729 -0.035300307
0.16621187 0.023425648 -0.23049149 -0.20948099 0.017896699 -0.29925 -0.25066835 0.31421825
-0.107598536 0.06925845 -0.09145232 -0.23162515 -0.032787215 0.09569793 -0.1633369 0.0005795462
-0.040191036 -0.25740463 0.20574263 0.20818238 0.169815 -0.055763304 0.21192421 -0.33724168
-0.05551563 -0.02684982 -0.09639954 0.101007044 -0.11836383 -0.026663858 -0.077690355 -0.22851206
-0.012460209 -0.19416738 0.13642809 0.13088083 0.2407186 -0.08631265 -0.030700682 0.11542869
0.26465365 0.3144773 -0.16393399 -0.22104695 -0.24596992 -0.11555364 0.1914611 0.06814292
0.32451367 0.24359743 0.04994008 -0.10946339 0.32927507 0.28781277 0.18420987 -0.09156965
0.20707493 -0.05155878 0.21296006 0.11367414 0.12378147 -0.23608899 -0.11398044 0.07820703
-0.051812362 -0.23882228 0.23865178 0.003880705 0.18011017 -0.19921643 0.08835597 -0.08496532
-0.10838259 -0.1369699 -0.06230571 0.13660344 -0.017179698 0.18931991 0.06729228 -0.04503135
-0.22621015 -0.32094187 -0.11850766 -0.27868968 -0.13158935 -0.07919443 -0.11534505 -0.16662619
0.1591074 0.08474541 -0.029109752 -0.07332634 0.12592578 0.19307484 -0.19281796 -0.09128267
0.03399603 -0.08532538 0.25937077 0.010263395 0.2152087 0.058087315 -0.02243827 -0.09383358
-0.08589784 0.06398018 0.091592215 -0.019249853 0.28003505 -0.1556618 0.08361183 0.27345756
-0.13085733 0.13112965 -0.055782307 -0.24585974 -0.20186114 -0.0044104825 -0.18893152 0.0028155819
0.26618972 0.17159823 -0.047852073 0.054819997 -0.17356749 -0.20891364 -0.20379598 -0.25034258
0.1425747 0.12026807 -0.050076596 -0.18988909 0.22589499 -0.045059856 0.054590274 -0.1625642
-0.16855134 0.002691588 -0.18790255 -0.11713498 0.19065225 -0.1499996 -0.0669235 -0.049860775
0.04429493 -0.2721604 0.010160415 0.084077954 -0.113674015 -0.011309484 -0.31694156 0.10245292
0.118745364 -0.09946037 -0.1655903 0.08956249 0.17176642 -0.046577863 0.11287081 0.04270296
-0.13150482 -0.027770432 0.23263542 -0.018349323 -0.2207828 -0.049305134 0.11461265 -0.102600254

net.block0.attn.value.bias f4 [16]
00000000: 2365 fcbd e3dd 363e 16d6 0b3e 20c7 e6bc
00000010: af86 8cbb 764b 7a3c 7612 8f3d ebc8 043c
00000020: fb82 05be b579 b53c 38c4 1bbc 7be2 27bc
00000030: 5d8f a7bd 4b38 a33d 0f58 74be 9c50 7f3d
-0.12323978 0.1785808 0.13655886 -0.028171122 -0.0042885165 0.01527678 0.06985943 0.008104543
-0.13038246 0.022152761 -0.009507231 -0.010246868 -0.08181641 0.079697214 -0.23861717 0.062332734

net.block0.attn.out.weight f4 [16, 16]
00000000: 05df d33d 4a9e 95bc eb2d 52be 0c6a 3abd
00000010: 431a f8bc 25ee 5dbe 9476 30be cdd8 8e3e
00000020: 0ae6 953e a450 003e 8940 b43d 0ce2 ae3d
00000030: 0b0a 763d 6ad9 7c3e 0ca7 94bd a34c 6abd
00000040: baff 773e b6c9 093d ed3f 20be 293c 3fbe
00000050: 293a ff3d 772e 4a3e 7139 683e 2118 973b
00000060: 3b4a 7d3e 82dc 87be a09d 31be 9b3d 6cbe
00000070: 1f8c 543e 5b2f 0d3c c6a2 a5bd 3513 fb3d
00000080: 8da5 19be d1ed 28be bd69 c53d 35a2 413d
00000090: c059 28be 507e 31be 6f1e eb3d 79b7 523e
000000a0: 6fa6 0a3d f4a7 0bbe 146e d73d 25c0 303d
000000b0: 1ec5 83be af47 04be a03a 143d f6d7 033e
000000c0: 9f2e 94bc 9307 013e c6fc 25be 1b9f 953e
000000d0: 5ae9 3e3e 19fe 293d cd63 0d3e 890d 2e3d
000000e0: a651 7bbe 1af3 1f3a c268 123e 895f 48bd
000000f0: c1ac af3e 8ee6 3ebe 680c 4dbe 1193 9fbd
00000100: 9c84 83be 6edc 203e 4e01 06be b26d 3ebe
00000110: ebca 1cbd 181e debd cbd6 5dbe cb72 273e
00000120: 17d0 89be b143 433e 2ec8 2f3e efc8 f1bc
00000130: 03c2 0b3e a92c 35be d9b1 173e 7fdb 483e
00000140: fc0f 063e a0b5 733e 95c4 95be e410 96bc
00000150: 5a86 86ba 6ba6 60be 13f8 293e 5f9c cfbd
00000160: cb35 0bbe e294 3fbe 7c64 083e d9c7 45be
00000170: a874 933c 97c9 c93c 8f61 573e 7ca0 a63d
00000180: 2f6b 0bbe cd56 f3bd 711e 003e 4970 243d
00000190: 7d33 583e 4085 953d 8ee0 643e 0b9d 37be
000001a0: 234a ba3d e6a0 bbbd 62bc 72bc 1ac5 8bba
000001b0: 0688 91bc f027 87bc e6e2 643e 2230 12be
000001c0: b7c0 b73d 8ed4 50be 10c7 d93c c00a d33d
000001d0: 578d 2f3e 934e 653e 7f34 ce3d 345e b73c
000001e0: 6228 0bbd 935b 93bd 3592 823e 00a9 e13d
000001f0: 6255 24be 5f4c 153e 9d2e a4bc 0a7c 04bc
00000200: 5758 95bd c2c4 55bd db84 0a3d b68d 84bd
00000210: b2ca 69be 8d96 19be 9137 e5bc 95d7 333e
00000220: 3d60 a23e 19f1 3dbe 49a6 b4bd 5af4 6bbd
00000230: 9da2 6bbe f39d 2a3d f43e a3bd 58f1 e73d
00000240: b8e8 04be d0ec 0c3d f7b0 fcbd 9db6 dabd
00000250: b3dd 573e 047c d6bd 0911 63bd b29f 7f3e
00000260: 71f4 523e c1f1 1fbe 4ec8 6bbe 54a7 bbbd
00000270: 8448 22be 1c05 433e 2019 b3bd 420a 283e
00000280: a13e 63be d84c c9bd 4adb ea3d 15d8 6b3e
00000290: c2de 863e e08b 3c3d 2d65 d3bc 258f c8bd
000002a0: d34b 533e aae8 10be 0e5c efbd f57b 55be
000002b0: 62c5 9cbe 1a61 543e fedf 29bc ed03 1f3e
000002c0: a2ce 1a3e b53e f23d 721f 033e e02f 03bd
000002d0: 4653 0e3e 5edb 143e b7f6 353d 939e be3a
000002e0: b3ea d83d 08b2 e0bc df10 51be 941f 233d
000002f0: e944 36be 4c83 fa3d 3cf2 2bbe 6bcb bdbd
00000300: 02fb ccbd c48d 533e 706c 26be 0bc4 5b3d
00000310: d3ff 0b3e 0377 3e3e 43e0 1c3d 33ec 163e
00000320: c57c 9c3e 7b7f 693c 0fd0 263c 0928 47be
00000330: 36c5 15be 8595 ed3d f5db 703c 0d2a e0bd
00000340: cff2 5dbe 633a 8cbd c728 0c3e 48c6 5e3e
00000350: 4b95 29be de51 e93d 36d2 80be 3e72 8dbe
00000360: de35 83be 6571 5bbc 758a f43d ec7c 24be
00000370: 3cf7 793e 954e 533e 6e2a 033d 021b 6c3e
00000380: f0ef bcbd 7214 c6bd 7196 34bd b64c bb3d
00000390: 0d43 3abe 5674 60be 203e 123e 3e2f 303d
000003a0: 2db5 fd3d 5691 9ebd 16f3 273e a16c b8bd
000003b0: 8f07 533e 8ec1 b7bd 3785 5d3e b331 3f3e
000003c0: 2f03 2e3e eb54 003e c07f 47bc ae1e 733e
000003d0: 649d 2abe 996a 5e3e bddd 8d3e 5437 853e
000003e0: 136d 1bbd a7ea 2bbe bc5b 80bc 188c 703d
000003f0: a971 c73d ff3d cd3d 7c9a 4e3e 001a 96bd
0.10345272 -0.018263955 -0.20525329 -0.04551129 -0.03028596 -0.21672876 -0.17232734 0.2789978
0.29277068 0.12530762 0.088013716 0.08539209 0.06006817 0.24692312 -0.07258424 -0.057201993
0.24218646 0.033639632 -0.15649386 -0.18675293 0.12462265 0.19744287 0.22678162 0.0046110307
0.24735348 -0.26535422 -0.17345285 -0.23070376 0.20756577 0.008617247 -0.08087687 0.12259523
-0.15004559 -0.1649697 0.096393086 0.047273833 -0.16440487 -0.1733334 0.11480414 0.20577802
0.03385013 -0.13638288 0.105190426 0.043151993 -0.25736326 -0.1291797 0.03618872 0.12875351
-0.018088637 0.12600546 -0.16209707 0.2922295 0.18643704 0.041502092 0.13807602 0.042493377
-0.24542865 0.00061015936 0.14297774 -0.048919234 0.34311488 -0.18642637 -0.20024264 -0.077917226
-0.2568711 0.15709087 -0.13086435 -0.18596533 -0.038279455 -0.10845584 -0.21663968 0.16352384
-0.26916572 0.19068791 0.17166206 -0.029514758 0.13648228 -0.17692818 0.14813937 0.19614981
0.13092035 0.23799753 -0.29251543 -0.018318601 -0.0010263429 -0.21938483 0.16598539 -0.10137247
-0.13594739 -0.18709138 0.13319582 -0.19314517 0.017999962 0.024632258 0.2103331 0.08136079
-0.13615106 -0.1188179 0.12511612 0.040146146 0.21113391 0.07300806 0.22351286 -0.17931001
0.09096172 -0.09161548 -0.014815422 -0.0010663599 -0.017765056 -0.016498536 0.2235218 -0.14276174
0.08972304 -0.20393583 0.026584178 0.10304785 0.1714376 0.22393255 0.100686066 0.022383787
-0.03397406 -0.07195201 0.25502172 0.11018562 -0.16048196 0.14579915 -0.020041758 -0.008086214
-0.0729224 -0.052189596 0.033818107 -0.06472342 -0.22831228 -0.14998837 -0.027980598 0.17562707
0.3171405 -0.18549003 -0.08820779 -0.05760608 -0.23011251 0.04165454 -0.07970992 0.113253295
-0.129794 0.03440553 -0.12338441 -0.10679362 0.21080665 -0.10472873 -0.055436168 0.24963263
0.2060106 -0.15619566 -0.23025629 -0.09162775 -0.15847975 0.19044918 -0.087450266 0.16410163
-0.2219186 -0.0982911 0.11467607 0.23031648 0.26341826 0.046031833 -0.02580508 -0.09792928
0.20634393 -0.14151254 -0.1168748 -0.20848067 -0.3061934 0.20740166 -0.010368345 0.15528841
0.15117887 0.11828367 0.12804964 -0.03202808 0.13898954 0.14536807 0.04442474 0.0014543108
0.1059164 -0.027428642 -0.20416592 0.039825037 -0.17799725 0.12232074 -0.16791624 -0.092673145
-0.100088134 0.20659548 -0.16252303 0.053653758 0.13671808 0.18600087 0.03829981 0.1473854
0.30563942 0.014251585 0.010181441 -0.19448866 -0.14626011 0.11600784 0.014700879 -0.109455206
-0.21674655 -0.06847074 0.1368743 0.21755326 -0.16560857 0.11392568 -0.25160378 -0.27626222
-0.25627035 -0.013393735 0.11940471 -0.16063279 0.24410719 0.20635445 0.032022886 0.23057178
-0.09225452 -0.096718684 -0.044088785 0.09145491 -0.1818964 -0.21919379 0.14281511 0.043013804
0.12388072 -0.077425644 0.16401324 -0.09005094 0.20608352 -0.089724645 0.21632849 0.18671302
0.16993402 0.12532394 -0.012176454 0.23742172 -0.16661602 0.21720351 0.27708235 0.26018775
-0.03794582 -0.16788732 -0.015668742 0.058727354 0.09738476 0.100215904 0.20176119 -0.07329178

net.block0.attn.out.bias f4 [16]
00000000: d2d1 b8bd 5b5b d53d 4bfd 8a3d 0372 0abe
00000010: 92f1 a0bc 2ece 49be 9688 a5bd 0ecc edbd
00000020: f36b 713e 2c13 67be 509c 1ebe 7ccb 80be
00000030: 9c5a 8f3d 05bc 30be 40e4 b63d a4a0 37be
-0.09024395 0.10417815 0.06786593 -0.13520055 -0.01964644 -0.19707558 -0.08082692 -0.11611186
0.23576336 -0.22565907 -0.15489316 -0.25155246 0.06999704 -0.17259224 0.08930254 -0.17932373

net.fc.weight f4 [4, 16]
00000000: 3ad9 4ebe 0e15 08be 7fc2 863d 542e 683e
00000010: a824 6f3e a53a a6bd 6199 85be 81de 14be
00000020: fb81 f9bd 5993 32bd f344 053e 688d b53d
00000030: e2ed 173e 5247 103d 2eac 42be 01a3 713c
00000040: c062 59bd 8e24 5bbe 9734 823d b4c3 08bd
00000050: 8efc 6cbe 9a29 453e bf21 4fbc 8e3b 89be
00000060: 9db1 c43d af81 7dbe ce00 2f3e f061 633e
00000070: 660d 8d3c c0e0 b63d 8ddb e73d 03a0 693e
00000080: 1d32 b8bc 6a44 b6bd cbad 91bd 0046 663e
00000090: a967 493d 15da 6d3e e541 0b3d 71a0 f13d
000000a0: b40f 983d d254 583c 0ddc 9fbe 85ff 84be
000000b0: 3fd3 96bd 7a07 213e d09f 6d3e 3f91 10bd
000000c0: 5415 273e 17de 343e 713e 8abe dfae 7abe
000000d0: 21f9 62be a1d0 cbbc 7328 55be 21a7 31bd
000000e0: 9ebd fe3c 9199 2f3e e3b0 3cbc 1d5e a43e
000000f0: 5de5 7b3e 1f6d 36be 166d 84bc 892c 3f3d
-0.20200053 -0.13289282 0.06580066 0.22673923 0.23353827 -0.08116654 -0.2609358 -0.14538004
-0.12182995 -0.043597553 0.13014583 0.08864862 0.14836839 0.035224266 -0.19010994 0.014748336
-0.05307269 -0.21400663 0.06357687 -0.033389762 -0.23143217 0.19254151 -0.012642323 -0.2680325
0.096041895 -0.24756502 0.1709015 0.22205329 0.017218303 0.089295864 0.11321173 0.22814946
-0.022484833 -0.08899768 -0.071132265 0.2248764 0.049171124 0.23227723 0.03399839 0.1179818
0.0742487 0.0132038165 -0.31222573 -0.25976196 -0.07364511 0.15725508 0.23205495 -0.035294767
0.1631673 0.17662846 -0.27000764 -0.2448077 -0.22165348 -0.024879755 -0.20816211 -0.043372277
0.031096276 0.17148425 -0.011516782 0.32103053 0.24599214 -0.17815064 -0.016165297 0.04667333

net.fc.bias f4 [4]
00000000: 1c3a 493e 221d a5bd ed00 98bd a8b6 1fbe
0.19651073 -0.08062197 -0.074220516 -0.15597022

exp_avg f4 [1, 8, 4, 4]
00000000: 198c bcba 3f8c 9239 5d62 8d38 b2ee 3b3b
00000010: 8df2 153a f630 18bb 75e1 4fb9 5827 553b
00000020: b384 c6ba 501c d7b8 1eef c83b 5123 043b
00000030: e63d e9ba ea8d 68b9 8535 8f3b 0ba3 ce3b
00000040: 17a1 6ebb 5748 9ebb a691 6a3b a444 c33b
00000050: 3008 94bb 085e cebb 22d9 883b 0355 1a3b
00000060: ba9a 51bb f455 b5bb 2023 a63b 3d19 843b
00000070: 2e51 adbb adc3 21bb 04b4 803b 222e c03b
00000080: bb13 733b 2c85 783b e125 34bb b96e c7bb
00000090: 53e9 823b 5701 ec3b aa5e bcba a832 73bb
000000a0: 3b0e 6b3b 1a8e a23b 45c5 f4bb 5839 a3bb
000000b0: 0f07 ad3b 958b ef3a dccd c5bb 3f5d 14bc
000000c0: b9a2 933b d425 b03b 7ae4 8e39 c1b4 08bc
000000d0: 1678 a03b 4209 a33b 6929 a7bb 729c 67bb
000000e0: ddc6 9c3b bd28 9a3b ec4f 16bc efd3 f4bb
000000f0: 7fa0 963b b076 3d3b c13a b6bb 273e 88bc
00000100: cb28 71b9 1eca aa3a acf8 8bbb a684 babb
00000110: 3d2c a93a 8840 2a3b 92e9 a3bb 55a3 f1ba
00000120: 7722 9b39 ee0d bc3a b380 73bb 9efc 91bb
00000130: 3e4b 4f3a 78a9 d4ba d566 63bb 0ab1 bebb
00000140: 8006 da3a 8d37 b239 b0f9 76bb 15e2 a8ba
00000150: edc4 873a 8333 803b d82d b3ba 37d8 0cbb
00000160: 100b 563b b5c9 e43a 37e7 40bb 3dab 0abb
00000170: 0c9d 6b3b 9f84 333a ae22 38bb 83c3 28bb
00000180: 84fd fe3b e02c 163c 01d7 21bc eedd 5ebc
00000190: eab5 ce3b 9c77 293c e2dd 34bc bdd5 eabb
000001a0: c4cc d73b 23f5 113c f9c3 7bbc fc86 3bbc
000001b0: a029 153c dd27 503b 48d3 2fbc 3c17 c6bc
000001c0: eccc 29bc a01f 46bc d117 1f3c dcc0 5c3c
000001d0: 360a 12bc a28f 46bc 7bef 283c b4e4 fd3b
000001e0: 8fd6 e0bb 4e4b 2fbc 6264 863c c3bc 3b3c
000001f0: 423e 3dbc 72ff a7bb 5946 373c cabe c43c
-0.0014385014 0.00027951782 6.7417255e-05 0.002867621 0.0005720042 -0.0023222542 -0.00019825048 0.0032524671
-0.0015145749 -0.000102572725 0.0061320206 0.0020162652 -0.0017794936 -0.00022178111 0.0043703937 0.0063060573
-0.0036411935 -0.004830401 0.003579238 0.0059591103 -0.0045175776 -0.0062978305 0.004176275 0.0023549206
-0.0031983093 -0.005533928 0.005070105 0.004031329 -0.0052892184 -0.0024683282 0.0039277095 0.0058648745
0.0037090618 0.0037921173 -0.0027488398 -0.006086197 0.0039950996 0.007202308 -0.0014371474 -0.003710905
0.0035866636 0.0049607875 -0.0074698054 -0.004981201 0.0052803825 0.0018275852 -0.0060365032 -0.009055435
0.004505482 0.005375603 0.0002725458 -0.008343876 0.004897128 0.004975469 -0.005101372 -0.0035341051
0.0047844485 0.0047045634 -0.009174328 -0.0074715535 0.0045967693 0.0028909855 -0.005561203 -0.016631199
-0.00022998748 0.0013030206 -0.0042715874 -0.0056920825 0.0012906861 0.0025978405 -0.005002209 -0.0018435518
0.00029589582 0.0014347413 -0.0037155568 -0.004455163 0.00079076353 -0.0016224822 -0.0034698744 -0.0058194445
0.0016634017 0.00033992194 -0.0037685446 -0.001288476 0.0010358371 0.0039123907 -0.0013670279 -0.0021491179
0.0032660402 0.0017455133 -0.002943469 -0.0021159195 0.0035951762 0.000684807 -0.0028096843 -0.00257513
0.0077816863 0.0091659725 -0.009877921 -0.013602717 0.006308307 0.0103434585 -0.011039229 -0.007166593
0.0065856893 0.008908543 -0.015366548 -0.011445757 0.009104162 0.0031762042 -0.010731526 -0.024181
-0.010363799 -0.012092501 0.009710268 0.013473716 -0.008913567 -0.012119206 0.010311003 0.007748211
-0.006861515 -0.010699106 0.016405288 0.0114585785 -0.011550488 -0.005126887 0.011186206 0.024016757

exp_avg_sq f4 [1, 8, 4, 4]
00000000: 5646 6f38 97fc 9938 1f72 d938 b920 ab38
00000010: 1ae6 a138 8c6e bc38 4f65 b138 393c c038
00000020: 5a56 ae38 47cf a038 59d7 d838 dc9e a738
00000030: 6099 b438 cda6 be38 8716 de38 f205 0f39
00000040: a7f0 3d38 33ec 6c38 396b ab38 731d d338
00000050: 081f 8638 c34a 9f38 1e25 9338 2b35 8138
00000060: ab84 8538 089d 8638 a7ca a938 a19a a238
00000070: 5b7b a738 e152 9a38 85cd ba38 2b84 f838
00000080: 3b4c 2e38 6658 3d38 67f2 cc38 6108 ef38
00000090: 6d95 4038 c38c 9c38 0ffb 8038 62b1 8738
000000a0: d18b 2638 0926 6238 97dd ff38 150f aa38
000000b0: 9c98 8438 7e6c 2e38 d783 f638 2555 1439
000000c0: 8f7a 1639 45e2 3039 af3b 3239 ea28 6339
000000d0: ae5a 0139 56df 0c39 2115 cc38 3f97 d438
000000e0: a5de 0b39 8598 1d39 e1e7 7939 76fd 1439
000000f0: e73c 1639 aaf7 e638 6cff 6839 7312 ab39
00000100: 10a8 7e38 8ef2 9e38 928a ff38 72c4 d138
00000110: 5306 c238 a8b4 d638 cd80 e838 924f c738
00000120: f239 b038 5f0e 9938 13a9 b938 9c67 d938
00000130: 40cd b238 8489 da38 d44f cf38 333f f838
00000140: 54fc 7f38 202e 6038 0ebe 9338 d08c 2038
00000150: 571f 9f38 b721 e338 6717 3f38 350a 5a38
00000160: 00ab b338 1600 a638 293a 8538 79e5 4d38
00000170: 654b ca38 9ce3 9e38 90cc 7138 1aa9 8c38
00000180: 84ce 3739 4b7a 6839 b389 ba39 0fa0 ba39
00000190: 254a 2639 1fc8 8539 36a1 1839 1d22 1039
000001a0: b32c 1639 deda 5a39 3f9e ce39 0ee9 5039
000001b0: 5797 6f39 1342 3539 577c b439 229c 2e3a
000001c0: a1dc 9b39 e31f ab39 846e f439 6e06 eb39
000001d0: 272e 9239 2a24 b139 d03b 5e39 1154 3339
000001e0: 3edc 3e39 bbf3 9439 765f 073a 364b 9339
000001f0: 9173 b039 dd89 a339 5123 f339 7e2f 5f3a
5.7047546e-05 7.342657e-05 0.00010368623 8.1600105e-05 7.719938e-05 8.9851295e-05 8.458888e-05 9.166491e-05
8.313051e-05 7.668003e-05 0.00010339794 7.9927704e-05 8.611637e-05 9.090975e-05 0.00010589981 0.00013639758
4.5285236e-05 5.6486762e-05 8.173887e-05 0.000100667494 6.395398e-05 7.595636e-05 7.01642e-05 6.161103e-05
6.3666455e-05 6.418867e-05 8.096295e-05 7.753564e-05 7.986157e-05 7.3587296e-05 8.907452e-05 0.0001185018
4.1555828e-05 4.514344e-05 9.772629e-05 0.00011397969 4.591553e-05 7.4648786e-05 6.150279e-05 6.470342e-05
3.97077e-05 5.3918022e-05 0.00012200622 8.109041e-05 6.322676e-05 4.1585874e-05 0.00011754751 0.00014146099
0.00014350771 0.0001686896 0.00016997637 0.00021663649 0.0001233618 0.0001343464 9.7314136e-05 0.000101371195
0.00013339015 0.00015029505 0.00023832872 0.00014208801 0.00014327803 0.00011013386 0.00022220396 0.00032629407
6.071484e-05 7.5792064e-05 0.00012185158 0.000100024874 9.251819e-05 0.00010237965 0.00011086613 9.5038806e-05
8.403127e-05 7.298285e-05 8.85298e-05 0.00010366665 8.525932e-05 0.00010420664 9.885398e-05 0.00011837333
6.1031737e-05 5.344872e-05 7.044907e-05 3.8278115e-05 7.587548e-05 0.000108304834 4.5559744e-05 5.1984756e-05
8.5672364e-05 7.915513e-05 6.3527674e-05 4.908952e-05 9.646154e-05 7.576423e-05 5.764939e-05 6.707218e-05
0.00017529173 0.00022170802 0.00035579278 0.00035595938 0.00015858615 0.0002551684 0.00014555905 0.00013745618
0.00014321767 0.00020871634 0.00039409284 0.00019923245 0.00022849195 0.0001728612 0.00034424916 0.0006660839
0.00029728285 0.0003263942 0.00046621647 0.00044827483 0.00027881676 0.00033787015 0.00021193852 0.00017102087
0.00018201859 0.00028410353 0.0005164066 0.0002809406 0.0003365544 0.000311925 0.00046374885 0.0008513852
